…
Downloading data from https://storage.googleapis.com/tensorflow/keras-applications/mobilenet_v2/mobilenet_v2_weights_tf_dim_ordering_tf_kernels_1.0_160_no_top.h5
9406464/9406464 ━━━━━━━━━━━━━━━━━━━━ 1s 0us/step
(32, 5, 5, 1280)
Model: "mobilenetv2_1.00_160"
┏━━━━━━━━━━━━━━━━━━━━━━━━━━━━━━━┳━━━━━━━━━━━━━━━━━━━━━━━━━━━┳━━━━━━━━━━━━━━━━━┳━━━━━━━━━━━━━━━━━━━━━━━━━━━━┓
┃ Layer (type)                  ┃ Output Shape              ┃         Param # ┃ Connected to               ┃
┡━━━━━━━━━━━━━━━━━━━━━━━━━━━━━━━╇━━━━━━━━━━━━━━━━━━━━━━━━━━━╇━━━━━━━━━━━━━━━━━╇━━━━━━━━━━━━━━━━━━━━━━━━━━━━┩
│ input_layer_1 (InputLayer)    │ (None, 160, 160, 3)       │               0 │ -                          │
├───────────────────────────────┼───────────────────────────┼─────────────────┼────────────────────────────┤
│ Conv1 (Conv2D)                │ (None, 80, 80, 32)        │             864 │ input_layer_1[0][0]        │
├───────────────────────────────┼───────────────────────────┼─────────────────┼────────────────────────────┤
│ bn_Conv1 (BatchNormalization) │ (None, 80, 80, 32)        │             128 │ Conv1[0][0]                │
├───────────────────────────────┼───────────────────────────┼─────────────────┼────────────────────────────┤
│ Conv1_relu (ReLU)             │ (None, 80, 80, 32)        │               0 │ bn_Conv1[0][0]             │
├───────────────────────────────┼───────────────────────────┼─────────────────┼────────────────────────────┤
│ expanded_conv_depthwise       │ (None, 80, 80, 32)        │             288 │ Conv1_relu[0][0]           │
│ (DepthwiseConv2D)             │                           │                 │                            │
├───────────────────────────────┼───────────────────────────┼─────────────────┼────────────────────────────┤
│ expanded_conv_depthwise_BN    │ (None, 80, 80, 32)        │             128 │ expanded_conv_depthwise[0… │
│ (BatchNormalization)          │                           │                 │                            │
├───────────────────────────────┼───────────────────────────┼─────────────────┼────────────────────────────┤
│ expanded_conv_depthwise_relu  │ (None, 80, 80, 32)        │               0 │ expanded_conv_depthwise_B… │
│ (ReLU)                        │                           │                 │                            │
├───────────────────────────────┼───────────────────────────┼─────────────────┼────────────────────────────┤
│ expanded_conv_project         │ (None, 80, 80, 16)        │             512 │ expanded_conv_depthwise_r… │
│ (Conv2D)                      │                           │                 │                            │
├───────────────────────────────┼───────────────────────────┼─────────────────┼────────────────────────────┤
│ expanded_conv_project_BN      │ (None, 80, 80, 16)        │              64 │ expanded_conv_project[0][… │
│ (BatchNormalization)          │                           │                 │                            │
├───────────────────────────────┼───────────────────────────┼─────────────────┼────────────────────────────┤
│ block_1_expand (Conv2D)       │ (None, 80, 80, 96)        │           1,536 │ expanded_conv_project_BN[… │
├───────────────────────────────┼───────────────────────────┼─────────────────┼────────────────────────────┤
│ block_1_expand_BN             │ (None, 80, 80, 96)        │             384 │ block_1_expand[0][0]       │
│ (BatchNormalization)          │                           │                 │                            │
├───────────────────────────────┼───────────────────────────┼─────────────────┼────────────────────────────┤
│ block_1_expand_relu (ReLU)    │ (None, 80, 80, 96)        │               0 │ block_1_expand_BN[0][0]    │
├───────────────────────────────┼───────────────────────────┼─────────────────┼────────────────────────────┤
│ block_1_pad (ZeroPadding2D)   │ (None, 81, 81, 96)        │               0 │ block_1_expand_relu[0][0]  │
├───────────────────────────────┼───────────────────────────┼─────────────────┼────────────────────────────┤
│ block_1_depthwise             │ (None, 40, 40, 96)        │             864 │ block_1_pad[0][0]          │
│ (DepthwiseConv2D)             │                           │                 │                            │
├───────────────────────────────┼───────────────────────────┼─────────────────┼────────────────────────────┤
│ block_1_depthwise_BN          │ (None, 40, 40, 96)        │             384 │ block_1_depthwise[0][0]    │
│ (BatchNormalization)          │                           │                 │                            │
├───────────────────────────────┼───────────────────────────┼─────────────────┼────────────────────────────┤
│ block_1_depthwise_relu (ReLU) │ (None, 40, 40, 96)        │               0 │ block_1_depthwise_BN[0][0] │
├───────────────────────────────┼───────────────────────────┼─────────────────┼────────────────────────────┤
│ block_1_project (Conv2D)      │ (None, 40, 40, 24)        │           2,304 │ block_1_depthwise_relu[0]… │
├───────────────────────────────┼───────────────────────────┼─────────────────┼────────────────────────────┤
│ block_1_project_BN            │ (None, 40, 40, 24)        │              96 │ block_1_project[0][0]      │
│ (BatchNormalization)          │                           │                 │                            │
├───────────────────────────────┼───────────────────────────┼─────────────────┼────────────────────────────┤
│ block_2_expand (Conv2D)       │ (None, 40, 40, 144)       │           3,456 │ block_1_project_BN[0][0]   │
├───────────────────────────────┼───────────────────────────┼─────────────────┼────────────────────────────┤
│ block_2_expand_BN             │ (None, 40, 40, 144)       │             576 │ block_2_expand[0][0]       │
│ (BatchNormalization)          │                           │                 │                            │
├───────────────────────────────┼───────────────────────────┼─────────────────┼────────────────────────────┤
│ block_2_expand_relu (ReLU)    │ (None, 40, 40, 144)       │               0 │ block_2_expand_BN[0][0]    │
├───────────────────────────────┼───────────────────────────┼─────────────────┼────────────────────────────┤
│ block_2_depthwise             │ (None, 40, 40, 144)       │           1,296 │ block_2_expand_relu[0][0]  │
│ (DepthwiseConv2D)             │                           │                 │                            │
├───────────────────────────────┼───────────────────────────┼─────────────────┼────────────────────────────┤
│ block_2_depthwise_BN          │ (None, 40, 40, 144)       │             576 │ block_2_depthwise[0][0]    │
│ (BatchNormalization)          │                           │                 │                            │
├───────────────────────────────┼───────────────────────────┼─────────────────┼────────────────────────────┤
│ block_2_depthwise_relu (ReLU) │ (None, 40, 40, 144)       │               0 │ block_2_depthwise_BN[0][0] │
├───────────────────────────────┼───────────────────────────┼─────────────────┼────────────────────────────┤
│ block_2_project (Conv2D)      │ (None, 40, 40, 24)        │           3,456 │ block_2_depthwise_relu[0]… │
├───────────────────────────────┼───────────────────────────┼─────────────────┼────────────────────────────┤
│ block_2_project_BN            │ (None, 40, 40, 24)        │              96 │ block_2_project[0][0]      │
│ (BatchNormalization)          │                           │                 │                            │
├───────────────────────────────┼───────────────────────────┼─────────────────┼────────────────────────────┤
│ block_2_add (Add)             │ (None, 40, 40, 24)        │               0 │ block_1_project_BN[0][0],  │
│                               │                           │                 │ block_2_project_BN[0][0]   │
├───────────────────────────────┼───────────────────────────┼─────────────────┼────────────────────────────┤
│ block_3_expand (Conv2D)       │ (None, 40, 40, 144)       │           3,456 │ block_2_add[0][0]          │
├───────────────────────────────┼───────────────────────────┼─────────────────┼────────────────────────────┤
│ block_3_expand_BN             │ (None, 40, 40, 144)       │             576 │ block_3_expand[0][0]       │
│ (BatchNormalization)          │                           │                 │                            │
├───────────────────────────────┼───────────────────────────┼─────────────────┼────────────────────────────┤
│ block_3_expand_relu (ReLU)    │ (None, 40, 40, 144)       │               0 │ block_3_expand_BN[0][0]    │
├───────────────────────────────┼───────────────────────────┼─────────────────┼────────────────────────────┤
│ block_3_pad (ZeroPadding2D)   │ (None, 41, 41, 144)       │               0 │ block_3_expand_relu[0][0]  │
├───────────────────────────────┼───────────────────────────┼─────────────────┼────────────────────────────┤
│ block_3_depthwise             │ (None, 20, 20, 144)       │           1,296 │ block_3_pad[0][0]          │
│ (DepthwiseConv2D)             │                           │                 │                            │
├───────────────────────────────┼───────────────────────────┼─────────────────┼────────────────────────────┤
│ block_3_depthwise_BN          │ (None, 20, 20, 144)       │             576 │ block_3_depthwise[0][0]    │
│ (BatchNormalization)          │                           │                 │                            │
├───────────────────────────────┼───────────────────────────┼─────────────────┼────────────────────────────┤
│ block_3_depthwise_relu (ReLU) │ (None, 20, 20, 144)       │               0 │ block_3_depthwise_BN[0][0] │
├───────────────────────────────┼───────────────────────────┼─────────────────┼────────────────────────────┤
│ block_3_project (Conv2D)      │ (None, 20, 20, 32)        │           4,608 │ block_3_depthwise_relu[0]… │
├───────────────────────────────┼───────────────────────────┼─────────────────┼────────────────────────────┤
│ block_3_project_BN            │ (None, 20, 20, 32)        │             128 │ block_3_project[0][0]      │
│ (BatchNormalization)          │                           │                 │                            │
├───────────────────────────────┼───────────────────────────┼─────────────────┼────────────────────────────┤
│ block_4_expand (Conv2D)       │ (None, 20, 20, 192)       │           6,144 │ block_3_project_BN[0][0]   │
├───────────────────────────────┼───────────────────────────┼─────────────────┼────────────────────────────┤
│ block_4_expand_BN             │ (None, 20, 20, 192)       │             768 │ block_4_expand[0][0]       │
│ (BatchNormalization)          │                           │                 │                            │
├───────────────────────────────┼───────────────────────────┼─────────────────┼────────────────────────────┤
│ block_4_expand_relu (ReLU)    │ (None, 20, 20, 192)       │               0 │ block_4_expand_BN[0][0]    │
├───────────────────────────────┼───────────────────────────┼─────────────────┼────────────────────────────┤
│ block_4_depthwise             │ (None, 20, 20, 192)       │           1,728 │ block_4_expand_relu[0][0]  │
│ (DepthwiseConv2D)             │                           │                 │                            │
├───────────────────────────────┼───────────────────────────┼─────────────────┼────────────────────────────┤
│ block_4_depthwise_BN          │ (None, 20, 20, 192)       │             768 │ block_4_depthwise[0][0]    │
│ (BatchNormalization)          │                           │                 │                            │
├───────────────────────────────┼───────────────────────────┼─────────────────┼────────────────────────────┤
│ block_4_depthwise_relu (ReLU) │ (None, 20, 20, 192)       │               0 │ block_4_depthwise_BN[0][0] │
├───────────────────────────────┼───────────────────────────┼─────────────────┼────────────────────────────┤
│ block_4_project (Conv2D)      │ (None, 20, 20, 32)        │           6,144 │ block_4_depthwise_relu[0]… │
├───────────────────────────────┼───────────────────────────┼─────────────────┼────────────────────────────┤
│ block_4_project_BN            │ (None, 20, 20, 32)        │             128 │ block_4_project[0][0]      │
│ (BatchNormalization)          │                           │                 │                            │
├───────────────────────────────┼───────────────────────────┼─────────────────┼────────────────────────────┤
│ block_4_add (Add)             │ (None, 20, 20, 32)        │               0 │ block_3_project_BN[0][0],  │
│                               │                           │                 │ block_4_project_BN[0][0]   │
├───────────────────────────────┼───────────────────────────┼─────────────────┼────────────────────────────┤
│ block_5_expand (Conv2D)       │ (None, 20, 20, 192)       │           6,144 │ block_4_add[0][0]          │
├───────────────────────────────┼───────────────────────────┼─────────────────┼────────────────────────────┤
│ block_5_expand_BN             │ (None, 20, 20, 192)       │             768 │ block_5_expand[0][0]       │
│ (BatchNormalization)          │                           │                 │                            │
├───────────────────────────────┼───────────────────────────┼─────────────────┼────────────────────────────┤
│ block_5_expand_relu (ReLU)    │ (None, 20, 20, 192)       │               0 │ block_5_expand_BN[0][0]    │
├───────────────────────────────┼───────────────────────────┼─────────────────┼────────────────────────────┤
│ block_5_depthwise             │ (None, 20, 20, 192)       │           1,728 │ block_5_expand_relu[0][0]  │
│ (DepthwiseConv2D)             │                           │                 │                            │
├───────────────────────────────┼───────────────────────────┼─────────────────┼────────────────────────────┤
│ block_5_depthwise_BN          │ (None, 20, 20, 192)       │             768 │ block_5_depthwise[0][0]    │
│ (BatchNormalization)          │                           │                 │                            │
├───────────────────────────────┼───────────────────────────┼─────────────────┼────────────────────────────┤
│ block_5_depthwise_relu (ReLU) │ (None, 20, 20, 192)       │               0 │ block_5_depthwise_BN[0][0] │
├───────────────────────────────┼───────────────────────────┼─────────────────┼────────────────────────────┤
│ block_5_project (Conv2D)      │ (None, 20, 20, 32)        │           6,144 │ block_5_depthwise_relu[0]… │
├───────────────────────────────┼───────────────────────────┼─────────────────┼────────────────────────────┤
│ block_5_project_BN            │ (None, 20, 20, 32)        │             128 │ block_5_project[0][0]      │
│ (BatchNormalization)          │                           │                 │                            │
├───────────────────────────────┼───────────────────────────┼─────────────────┼────────────────────────────┤
│ block_5_add (Add)             │ (None, 20, 20, 32)        │               0 │ block_4_add[0][0],         │
│                               │                           │                 │ block_5_project_BN[0][0]   │
├───────────────────────────────┼───────────────────────────┼─────────────────┼────────────────────────────┤
│ block_6_expand (Conv2D)       │ (None, 20, 20, 192)       │           6,144 │ block_5_add[0][0]          │
├───────────────────────────────┼───────────────────────────┼─────────────────┼────────────────────────────┤
│ block_6_expand_BN             │ (None, 20, 20, 192)       │             768 │ block_6_expand[0][0]       │
│ (BatchNormalization)          │                           │                 │                            │
├───────────────────────────────┼───────────────────────────┼─────────────────┼────────────────────────────┤
│ block_6_expand_relu (ReLU)    │ (None, 20, 20, 192)       │               0 │ block_6_expand_BN[0][0]    │
├───────────────────────────────┼───────────────────────────┼─────────────────┼────────────────────────────┤
│ block_6_pad (ZeroPadding2D)   │ (None, 21, 21, 192)       │               0 │ block_6_expand_relu[0][0]  │
├───────────────────────────────┼───────────────────────────┼─────────────────┼────────────────────────────┤
│ block_6_depthwise             │ (None, 10, 10, 192)       │           1,728 │ block_6_pad[0][0]          │
│ (DepthwiseConv2D)             │                           │                 │                            │
├───────────────────────────────┼───────────────────────────┼─────────────────┼────────────────────────────┤
│ block_6_depthwise_BN          │ (None, 10, 10, 192)       │             768 │ block_6_depthwise[0][0]    │
│ (BatchNormalization)          │                           │                 │                            │
├───────────────────────────────┼───────────────────────────┼─────────────────┼────────────────────────────┤
│ block_6_depthwise_relu (ReLU) │ (None, 10, 10, 192)       │               0 │ block_6_depthwise_BN[0][0] │
├───────────────────────────────┼───────────────────────────┼─────────────────┼────────────────────────────┤
│ block_6_project (Conv2D)      │ (None, 10, 10, 64)        │          12,288 │ block_6_depthwise_relu[0]… │
├───────────────────────────────┼───────────────────────────┼─────────────────┼────────────────────────────┤
│ block_6_project_BN            │ (None, 10, 10, 64)        │             256 │ block_6_project[0][0]      │
│ (BatchNormalization)          │                           │                 │                            │
├───────────────────────────────┼───────────────────────────┼─────────────────┼────────────────────────────┤
│ block_7_expand (Conv2D)       │ (None, 10, 10, 384)       │          24,576 │ block_6_project_BN[0][0]   │
├───────────────────────────────┼───────────────────────────┼─────────────────┼────────────────────────────┤
│ block_7_expand_BN             │ (None, 10, 10, 384)       │           1,536 │ block_7_expand[0][0]       │
│ (BatchNormalization)          │                           │                 │                            │
├───────────────────────────────┼───────────────────────────┼─────────────────┼────────────────────────────┤
│ block_7_expand_relu (ReLU)    │ (None, 10, 10, 384)       │               0 │ block_7_expand_BN[0][0]    │
├───────────────────────────────┼───────────────────────────┼─────────────────┼────────────────────────────┤
│ block_7_depthwise             │ (None, 10, 10, 384)       │           3,456 │ block_7_expand_relu[0][0]  │
│ (DepthwiseConv2D)             │                           │                 │                            │
├───────────────────────────────┼───────────────────────────┼─────────────────┼────────────────────────────┤
│ block_7_depthwise_BN          │ (None, 10, 10, 384)       │           1,536 │ block_7_depthwise[0][0]    │
│ (BatchNormalization)          │                           │                 │                            │
├───────────────────────────────┼───────────────────────────┼─────────────────┼────────────────────────────┤
│ block_7_depthwise_relu (ReLU) │ (None, 10, 10, 384)       │               0 │ block_7_depthwise_BN[0][0] │
├───────────────────────────────┼───────────────────────────┼─────────────────┼────────────────────────────┤
│ block_7_project (Conv2D)      │ (None, 10, 10, 64)        │          24,576 │ block_7_depthwise_relu[0]… │
├───────────────────────────────┼───────────────────────────┼─────────────────┼────────────────────────────┤
│ block_7_project_BN            │ (None, 10, 10, 64)        │             256 │ block_7_project[0][0]      │
│ (BatchNormalization)          │                           │                 │                            │
├───────────────────────────────┼───────────────────────────┼─────────────────┼────────────────────────────┤
│ block_7_add (Add)             │ (None, 10, 10, 64)        │               0 │ block_6_project_BN[0][0],  │
│                               │                           │                 │ block_7_project_BN[0][0]   │
├───────────────────────────────┼───────────────────────────┼─────────────────┼────────────────────────────┤
│ block_8_expand (Conv2D)       │ (None, 10, 10, 384)       │          24,576 │ block_7_add[0][0]          │
├───────────────────────────────┼───────────────────────────┼─────────────────┼────────────────────────────┤
│ block_8_expand_BN             │ (None, 10, 10, 384)       │           1,536 │ block_8_expand[0][0]       │
│ (BatchNormalization)          │                           │                 │                            │
├───────────────────────────────┼───────────────────────────┼─────────────────┼────────────────────────────┤
│ block_8_expand_relu (ReLU)    │ (None, 10, 10, 384)       │               0 │ block_8_expand_BN[0][0]    │
├───────────────────────────────┼───────────────────────────┼─────────────────┼────────────────────────────┤
│ block_8_depthwise             │ (None, 10, 10, 384)       │           3,456 │ block_8_expand_relu[0][0]  │
│ (DepthwiseConv2D)             │                           │                 │                            │
├───────────────────────────────┼───────────────────────────┼─────────────────┼────────────────────────────┤
│ block_8_depthwise_BN          │ (None, 10, 10, 384)       │           1,536 │ block_8_depthwise[0][0]    │
│ (BatchNormalization)          │                           │                 │                            │
├───────────────────────────────┼───────────────────────────┼─────────────────┼────────────────────────────┤
│ block_8_depthwise_relu (ReLU) │ (None, 10, 10, 384)       │               0 │ block_8_depthwise_BN[0][0] │
├───────────────────────────────┼───────────────────────────┼─────────────────┼────────────────────────────┤
│ block_8_project (Conv2D)      │ (None, 10, 10, 64)        │          24,576 │ block_8_depthwise_relu[0]… │
├───────────────────────────────┼───────────────────────────┼─────────────────┼────────────────────────────┤
│ block_8_project_BN            │ (None, 10, 10, 64)        │             256 │ block_8_project[0][0]      │
│ (BatchNormalization)          │                           │                 │                            │
├───────────────────────────────┼───────────────────────────┼─────────────────┼────────────────────────────┤
│ block_8_add (Add)             │ (None, 10, 10, 64)        │               0 │ block_7_add[0][0],         │
│                               │                           │                 │ block_8_project_BN[0][0]   │
├───────────────────────────────┼───────────────────────────┼─────────────────┼────────────────────────────┤
│ block_9_expand (Conv2D)       │ (None, 10, 10, 384)       │          24,576 │ block_8_add[0][0]          │
├───────────────────────────────┼───────────────────────────┼─────────────────┼────────────────────────────┤
│ block_9_expand_BN             │ (None, 10, 10, 384)       │           1,536 │ block_9_expand[0][0]       │
│ (BatchNormalization)          │                           │                 │                            │
├───────────────────────────────┼───────────────────────────┼─────────────────┼────────────────────────────┤
│ block_9_expand_relu (ReLU)    │ (None, 10, 10, 384)       │               0 │ block_9_expand_BN[0][0]    │
├───────────────────────────────┼───────────────────────────┼─────────────────┼────────────────────────────┤
│ block_9_depthwise             │ (None, 10, 10, 384)       │           3,456 │ block_9_expand_relu[0][0]  │
│ (DepthwiseConv2D)             │                           │                 │                            │
├───────────────────────────────┼───────────────────────────┼─────────────────┼────────────────────────────┤
│ block_9_depthwise_BN          │ (None, 10, 10, 384)       │           1,536 │ block_9_depthwise[0][0]    │
│ (BatchNormalization)          │                           │                 │                            │
├───────────────────────────────┼───────────────────────────┼─────────────────┼────────────────────────────┤
│ block_9_depthwise_relu (ReLU) │ (None, 10, 10, 384)       │               0 │ block_9_depthwise_BN[0][0] │
├───────────────────────────────┼───────────────────────────┼─────────────────┼────────────────────────────┤
│ block_9_project (Conv2D)      │ (None, 10, 10, 64)        │          24,576 │ block_9_depthwise_relu[0]… │
├───────────────────────────────┼───────────────────────────┼─────────────────┼────────────────────────────┤
│ block_9_project_BN            │ (None, 10, 10, 64)        │             256 │ block_9_project[0][0]      │
│ (BatchNormalization)          │                           │                 │                            │
├───────────────────────────────┼───────────────────────────┼─────────────────┼────────────────────────────┤
│ block_9_add (Add)             │ (None, 10, 10, 64)        │               0 │ block_8_add[0][0],         │
│                               │                           │                 │ block_9_project_BN[0][0]   │
├───────────────────────────────┼───────────────────────────┼─────────────────┼────────────────────────────┤
│ block_10_expand (Conv2D)      │ (None, 10, 10, 384)       │          24,576 │ block_9_add[0][0]          │
├───────────────────────────────┼───────────────────────────┼─────────────────┼────────────────────────────┤
│ block_10_expand_BN            │ (None, 10, 10, 384)       │           1,536 │ block_10_expand[0][0]      │
│ (BatchNormalization)          │                           │                 │                            │
├───────────────────────────────┼───────────────────────────┼─────────────────┼────────────────────────────┤
│ block_10_expand_relu (ReLU)   │ (None, 10, 10, 384)       │               0 │ block_10_expand_BN[0][0]   │
├───────────────────────────────┼───────────────────────────┼─────────────────┼────────────────────────────┤
│ block_10_depthwise            │ (None, 10, 10, 384)       │           3,456 │ block_10_expand_relu[0][0] │
│ (DepthwiseConv2D)             │                           │                 │                            │
├───────────────────────────────┼───────────────────────────┼─────────────────┼────────────────────────────┤
│ block_10_depthwise_BN         │ (None, 10, 10, 384)       │           1,536 │ block_10_depthwise[0][0]   │
│ (BatchNormalization)          │                           │                 │                            │
├───────────────────────────────┼───────────────────────────┼─────────────────┼────────────────────────────┤
│ block_10_depthwise_relu       │ (None, 10, 10, 384)       │               0 │ block_10_depthwise_BN[0][… │
│ (ReLU)                        │                           │                 │                            │
├───────────────────────────────┼───────────────────────────┼─────────────────┼────────────────────────────┤
│ block_10_project (Conv2D)     │ (None, 10, 10, 96)        │          36,864 │ block_10_depthwise_relu[0… │
├───────────────────────────────┼───────────────────────────┼─────────────────┼────────────────────────────┤
│ block_10_project_BN           │ (None, 10, 10, 96)        │             384 │ block_10_project[0][0]     │
│ (BatchNormalization)          │                           │                 │                            │
├───────────────────────────────┼───────────────────────────┼─────────────────┼────────────────────────────┤
│ block_11_expand (Conv2D)      │ (None, 10, 10, 576)       │          55,296 │ block_10_project_BN[0][0]  │
├───────────────────────────────┼───────────────────────────┼─────────────────┼────────────────────────────┤
│ block_11_expand_BN            │ (None, 10, 10, 576)       │           2,304 │ block_11_expand[0][0]      │
│ (BatchNormalization)          │                           │                 │                            │
├───────────────────────────────┼───────────────────────────┼─────────────────┼────────────────────────────┤
│ block_11_expand_relu (ReLU)   │ (None, 10, 10, 576)       │               0 │ block_11_expand_BN[0][0]   │
├───────────────────────────────┼───────────────────────────┼─────────────────┼────────────────────────────┤
│ block_11_depthwise            │ (None, 10, 10, 576)       │           5,184 │ block_11_expand_relu[0][0] │
│ (DepthwiseConv2D)             │                           │                 │                            │
├───────────────────────────────┼───────────────────────────┼─────────────────┼────────────────────────────┤
│ block_11_depthwise_BN         │ (None, 10, 10, 576)       │           2,304 │ block_11_depthwise[0][0]   │
│ (BatchNormalization)          │                           │                 │                            │
├───────────────────────────────┼───────────────────────────┼─────────────────┼────────────────────────────┤
│ block_11_depthwise_relu       │ (None, 10, 10, 576)       │               0 │ block_11_depthwise_BN[0][… │
│ (ReLU)                        │                           │                 │                            │
├───────────────────────────────┼───────────────────────────┼─────────────────┼────────────────────────────┤
│ block_11_project (Conv2D)     │ (None, 10, 10, 96)        │          55,296 │ block_11_depthwise_relu[0… │
├───────────────────────────────┼───────────────────────────┼─────────────────┼────────────────────────────┤
│ block_11_project_BN           │ (None, 10, 10, 96)        │             384 │ block_11_project[0][0]     │
│ (BatchNormalization)          │                           │                 │                            │
├───────────────────────────────┼───────────────────────────┼─────────────────┼────────────────────────────┤
│ block_11_add (Add)            │ (None, 10, 10, 96)        │               0 │ block_10_project_BN[0][0], │
│                               │                           │                 │ block_11_project_BN[0][0]  │
├───────────────────────────────┼───────────────────────────┼─────────────────┼────────────────────────────┤
│ block_12_expand (Conv2D)      │ (None, 10, 10, 576)       │          55,296 │ block_11_add[0][0]         │
├───────────────────────────────┼───────────────────────────┼─────────────────┼────────────────────────────┤
│ block_12_expand_BN            │ (None, 10, 10, 576)       │           2,304 │ block_12_expand[0][0]      │
│ (BatchNormalization)          │                           │                 │                            │
├───────────────────────────────┼───────────────────────────┼─────────────────┼────────────────────────────┤
│ block_12_expand_relu (ReLU)   │ (None, 10, 10, 576)       │               0 │ block_12_expand_BN[0][0]   │
├───────────────────────────────┼───────────────────────────┼─────────────────┼────────────────────────────┤
│ block_12_depthwise            │ (None, 10, 10, 576)       │           5,184 │ block_12_expand_relu[0][0] │
│ (DepthwiseConv2D)             │                           │                 │                            │
├───────────────────────────────┼───────────────────────────┼─────────────────┼────────────────────────────┤
│ block_12_depthwise_BN         │ (None, 10, 10, 576)       │           2,304 │ block_12_depthwise[0][0]   │
│ (BatchNormalization)          │                           │                 │                            │
├───────────────────────────────┼───────────────────────────┼─────────────────┼────────────────────────────┤
│ block_12_depthwise_relu       │ (None, 10, 10, 576)       │               0 │ block_12_depthwise_BN[0][… │
│ (ReLU)                        │                           │                 │                            │
├───────────────────────────────┼───────────────────────────┼─────────────────┼────────────────────────────┤
│ block_12_project (Conv2D)     │ (None, 10, 10, 96)        │          55,296 │ block_12_depthwise_relu[0… │
├───────────────────────────────┼───────────────────────────┼─────────────────┼────────────────────────────┤
│ block_12_project_BN           │ (None, 10, 10, 96)        │             384 │ block_12_project[0][0]     │
│ (BatchNormalization)          │                           │                 │                            │
├───────────────────────────────┼───────────────────────────┼─────────────────┼────────────────────────────┤
│ block_12_add (Add)            │ (None, 10, 10, 96)        │               0 │ block_11_add[0][0],        │
│                               │                           │                 │ block_12_project_BN[0][0]  │
├───────────────────────────────┼───────────────────────────┼─────────────────┼────────────────────────────┤
│ block_13_expand (Conv2D)      │ (None, 10, 10, 576)       │          55,296 │ block_12_add[0][0]         │
├───────────────────────────────┼───────────────────────────┼─────────────────┼────────────────────────────┤
│ block_13_expand_BN            │ (None, 10, 10, 576)       │           2,304 │ block_13_expand[0][0]      │
│ (BatchNormalization)          │                           │                 │                            │
├───────────────────────────────┼───────────────────────────┼─────────────────┼────────────────────────────┤
│ block_13_expand_relu (ReLU)   │ (None, 10, 10, 576)       │               0 │ block_13_expand_BN[0][0]   │
├───────────────────────────────┼───────────────────────────┼─────────────────┼────────────────────────────┤
│ block_13_pad (ZeroPadding2D)  │ (None, 11, 11, 576)       │               0 │ block_13_expand_relu[0][0] │
├───────────────────────────────┼───────────────────────────┼─────────────────┼────────────────────────────┤
│ block_13_depthwise            │ (None, 5, 5, 576)         │           5,184 │ block_13_pad[0][0]         │
│ (DepthwiseConv2D)             │                           │                 │                            │
├───────────────────────────────┼───────────────────────────┼─────────────────┼────────────────────────────┤
│ block_13_depthwise_BN         │ (None, 5, 5, 576)         │           2,304 │ block_13_depthwise[0][0]   │
│ (BatchNormalization)          │                           │                 │                            │
├───────────────────────────────┼───────────────────────────┼─────────────────┼────────────────────────────┤
│ block_13_depthwise_relu       │ (None, 5, 5, 576)         │               0 │ block_13_depthwise_BN[0][… │
│ (ReLU)                        │                           │                 │                            │
├───────────────────────────────┼───────────────────────────┼─────────────────┼────────────────────────────┤
│ block_13_project (Conv2D)     │ (None, 5, 5, 160)         │          92,160 │ block_13_depthwise_relu[0… │
├───────────────────────────────┼───────────────────────────┼─────────────────┼────────────────────────────┤
│ block_13_project_BN           │ (None, 5, 5, 160)         │             640 │ block_13_project[0][0]     │
│ (BatchNormalization)          │                           │                 │                            │
├───────────────────────────────┼───────────────────────────┼─────────────────┼────────────────────────────┤
│ block_14_expand (Conv2D)      │ (None, 5, 5, 960)         │         153,600 │ block_13_project_BN[0][0]  │
├───────────────────────────────┼───────────────────────────┼─────────────────┼────────────────────────────┤
│ block_14_expand_BN            │ (None, 5, 5, 960)         │           3,840 │ block_14_expand[0][0]      │
│ (BatchNormalization)          │                           │                 │                            │
├───────────────────────────────┼───────────────────────────┼─────────────────┼────────────────────────────┤
│ block_14_expand_relu (ReLU)   │ (None, 5, 5, 960)         │               0 │ block_14_expand_BN[0][0]   │
├───────────────────────────────┼───────────────────────────┼─────────────────┼────────────────────────────┤
│ block_14_depthwise            │ (None, 5, 5, 960)         │           8,640 │ block_14_expand_relu[0][0] │
│ (DepthwiseConv2D)             │                           │                 │                            │
├───────────────────────────────┼───────────────────────────┼─────────────────┼────────────────────────────┤
│ block_14_depthwise_BN         │ (None, 5, 5, 960)         │           3,840 │ block_14_depthwise[0][0]   │
│ (BatchNormalization)          │                           │                 │                            │
├───────────────────────────────┼───────────────────────────┼─────────────────┼────────────────────────────┤
│ block_14_depthwise_relu       │ (None, 5, 5, 960)         │               0 │ block_14_depthwise_BN[0][… │
│ (ReLU)                        │                           │                 │                            │
├───────────────────────────────┼───────────────────────────┼─────────────────┼────────────────────────────┤
│ block_14_project (Conv2D)     │ (None, 5, 5, 160)         │         153,600 │ block_14_depthwise_relu[0… │
├───────────────────────────────┼───────────────────────────┼─────────────────┼────────────────────────────┤
│ block_14_project_BN           │ (None, 5, 5, 160)         │             640 │ block_14_project[0][0]     │
│ (BatchNormalization)          │                           │                 │                            │
├───────────────────────────────┼───────────────────────────┼─────────────────┼────────────────────────────┤
│ block_14_add (Add)            │ (None, 5, 5, 160)         │               0 │ block_13_project_BN[0][0], │
│                               │                           │                 │ block_14_project_BN[0][0]  │
├───────────────────────────────┼───────────────────────────┼─────────────────┼────────────────────────────┤
│ block_15_expand (Conv2D)      │ (None, 5, 5, 960)         │         153,600 │ block_14_add[0][0]         │
├───────────────────────────────┼───────────────────────────┼─────────────────┼────────────────────────────┤
│ block_15_expand_BN            │ (None, 5, 5, 960)         │           3,840 │ block_15_expand[0][0]      │
│ (BatchNormalization)          │                           │                 │                            │
├───────────────────────────────┼───────────────────────────┼─────────────────┼────────────────────────────┤
│ block_15_expand_relu (ReLU)   │ (None, 5, 5, 960)         │               0 │ block_15_expand_BN[0][0]   │
├───────────────────────────────┼───────────────────────────┼─────────────────┼────────────────────────────┤
│ block_15_depthwise            │ (None, 5, 5, 960)         │           8,640 │ block_15_expand_relu[0][0] │
│ (DepthwiseConv2D)             │                           │                 │                            │
├───────────────────────────────┼───────────────────────────┼─────────────────┼────────────────────────────┤
│ block_15_depthwise_BN         │ (None, 5, 5, 960)         │           3,840 │ block_15_depthwise[0][0]   │
│ (BatchNormalization)          │                           │                 │                            │
├───────────────────────────────┼───────────────────────────┼─────────────────┼────────────────────────────┤
│ block_15_depthwise_relu       │ (None, 5, 5, 960)         │               0 │ block_15_depthwise_BN[0][… │
│ (ReLU)                        │                           │                 │                            │
├───────────────────────────────┼───────────────────────────┼─────────────────┼────────────────────────────┤
│ block_15_project (Conv2D)     │ (None, 5, 5, 160)         │         153,600 │ block_15_depthwise_relu[0… │
├───────────────────────────────┼───────────────────────────┼─────────────────┼────────────────────────────┤
│ block_15_project_BN           │ (None, 5, 5, 160)         │             640 │ block_15_project[0][0]     │
│ (BatchNormalization)          │                           │                 │                            │
├───────────────────────────────┼───────────────────────────┼─────────────────┼────────────────────────────┤
│ block_15_add (Add)            │ (None, 5, 5, 160)         │               0 │ block_14_add[0][0],        │
│                               │                           │                 │ block_15_project_BN[0][0]  │
├───────────────────────────────┼───────────────────────────┼─────────────────┼────────────────────────────┤
│ block_16_expand (Conv2D)      │ (None, 5, 5, 960)         │         153,600 │ block_15_add[0][0]         │
├───────────────────────────────┼───────────────────────────┼─────────────────┼────────────────────────────┤
│ block_16_expand_BN            │ (None, 5, 5, 960)         │           3,840 │ block_16_expand[0][0]      │
│ (BatchNormalization)          │                           │                 │                            │
├───────────────────────────────┼───────────────────────────┼─────────────────┼────────────────────────────┤
│ block_16_expand_relu (ReLU)   │ (None, 5, 5, 960)         │               0 │ block_16_expand_BN[0][0]   │
├───────────────────────────────┼───────────────────────────┼─────────────────┼────────────────────────────┤
│ block_16_depthwise            │ (None, 5, 5, 960)         │           8,640 │ block_16_expand_relu[0][0] │
│ (DepthwiseConv2D)             │                           │                 │                            │
├───────────────────────────────┼───────────────────────────┼─────────────────┼────────────────────────────┤
│ block_16_depthwise_BN         │ (None, 5, 5, 960)         │           3,840 │ block_16_depthwise[0][0]   │
│ (BatchNormalization)          │                           │                 │                            │
├───────────────────────────────┼───────────────────────────┼─────────────────┼────────────────────────────┤
│ block_16_depthwise_relu       │ (None, 5, 5, 960)         │               0 │ block_16_depthwise_BN[0][… │
│ (ReLU)                        │                           │                 │                            │
├───────────────────────────────┼───────────────────────────┼─────────────────┼────────────────────────────┤
│ block_16_project (Conv2D)     │ (None, 5, 5, 320)         │         307,200 │ block_16_depthwise_relu[0… │
├───────────────────────────────┼───────────────────────────┼─────────────────┼────────────────────────────┤
│ block_16_project_BN           │ (None, 5, 5, 320)         │           1,280 │ block_16_project[0][0]     │
│ (BatchNormalization)          │                           │                 │                            │
├───────────────────────────────┼───────────────────────────┼─────────────────┼────────────────────────────┤
│ Conv_1 (Conv2D)               │ (None, 5, 5, 1280)        │         409,600 │ block_16_project_BN[0][0]  │
├───────────────────────────────┼───────────────────────────┼─────────────────┼────────────────────────────┤
│ Conv_1_bn                     │ (None, 5, 5, 1280)        │           5,120 │ Conv_1[0][0]               │
│ (BatchNormalization)          │                           │                 │                            │
├───────────────────────────────┼───────────────────────────┼─────────────────┼────────────────────────────┤
│ out_relu (ReLU)               │ (None, 5, 5, 1280)        │               0 │ Conv_1_bn[0][0]            │
└───────────────────────────────┴───────────────────────────┴─────────────────┴────────────────────────────┘
 Total params: 2,257,984 (8.61 MB)
 Trainable params: 0 (0.00 B)
 Non-trainable params: 2,257,984 (8.61 MB)
(32, 1280)
(32, 1)
Traceback (most recent call last):
  File "X:\Pliki\MSI\Psy4000\train.py", line 109, in <module>
    model.compile(optimizer=tf.keras.optimizers.Adam(lr=base_learning_rate),
…
Number of validation batches: 51
Number of test batches: 12
2024-04-05 12:50:05.194773: W tensorflow/core/framework/local_rendezvous.cc:404] Local rendezvous is aborting with status: OUT_OF_RANGE: End of sequence
(32, 5, 5, 1280)
Model: "mobilenetv2_1.00_160"
┏━━━━━━━━━━━━━━━━━━━━━━━━━━━━━━━┳━━━━━━━━━━━━━━━━━━━━━━━━━━━┳━━━━━━━━━━━━━━━━━┳━━━━━━━━━━━━━━━━━━━━━━━━━━━━┓
┃ Layer (type)                  ┃ Output Shape              ┃         Param # ┃ Connected to               ┃
┡━━━━━━━━━━━━━━━━━━━━━━━━━━━━━━━╇━━━━━━━━━━━━━━━━━━━━━━━━━━━╇━━━━━━━━━━━━━━━━━╇━━━━━━━━━━━━━━━━━━━━━━━━━━━━┩
│ input_layer_1 (InputLayer)    │ (None, 160, 160, 3)       │               0 │ -                          │
├───────────────────────────────┼───────────────────────────┼─────────────────┼────────────────────────────┤
│ Conv1 (Conv2D)                │ (None, 80, 80, 32)        │             864 │ input_layer_1[0][0]        │
├───────────────────────────────┼───────────────────────────┼─────────────────┼────────────────────────────┤
│ bn_Conv1 (BatchNormalization) │ (None, 80, 80, 32)        │             128 │ Conv1[0][0]                │
├───────────────────────────────┼───────────────────────────┼─────────────────┼────────────────────────────┤
│ Conv1_relu (ReLU)             │ (None, 80, 80, 32)        │               0 │ bn_Conv1[0][0]             │
├───────────────────────────────┼───────────────────────────┼─────────────────┼────────────────────────────┤
│ expanded_conv_depthwise       │ (None, 80, 80, 32)        │             288 │ Conv1_relu[0][0]           │
│ (DepthwiseConv2D)             │                           │                 │                            │
├───────────────────────────────┼───────────────────────────┼─────────────────┼────────────────────────────┤
│ expanded_conv_depthwise_BN    │ (None, 80, 80, 32)        │             128 │ expanded_conv_depthwise[0… │
│ (BatchNormalization)          │                           │                 │                            │
├───────────────────────────────┼───────────────────────────┼─────────────────┼────────────────────────────┤
│ expanded_conv_depthwise_relu  │ (None, 80, 80, 32)        │               0 │ expanded_conv_depthwise_B… │
│ (ReLU)                        │                           │                 │                            │
├───────────────────────────────┼───────────────────────────┼─────────────────┼────────────────────────────┤
│ expanded_conv_project         │ (None, 80, 80, 16)        │             512 │ expanded_conv_depthwise_r… │
│ (Conv2D)                      │                           │                 │                            │
├───────────────────────────────┼───────────────────────────┼─────────────────┼────────────────────────────┤
│ expanded_conv_project_BN      │ (None, 80, 80, 16)        │              64 │ expanded_conv_project[0][… │
│ (BatchNormalization)          │                           │                 │                            │
├───────────────────────────────┼───────────────────────────┼─────────────────┼────────────────────────────┤
│ block_1_expand (Conv2D)       │ (None, 80, 80, 96)        │           1,536 │ expanded_conv_project_BN[… │
├───────────────────────────────┼───────────────────────────┼─────────────────┼────────────────────────────┤
│ block_1_expand_BN             │ (None, 80, 80, 96)        │             384 │ block_1_expand[0][0]       │
│ (BatchNormalization)          │                           │                 │                            │
├───────────────────────────────┼───────────────────────────┼─────────────────┼────────────────────────────┤
│ block_1_expand_relu (ReLU)    │ (None, 80, 80, 96)        │               0 │ block_1_expand_BN[0][0]    │
├───────────────────────────────┼───────────────────────────┼─────────────────┼────────────────────────────┤
│ block_1_pad (ZeroPadding2D)   │ (None, 81, 81, 96)        │               0 │ block_1_expand_relu[0][0]  │
├───────────────────────────────┼───────────────────────────┼─────────────────┼────────────────────────────┤
│ block_1_depthwise             │ (None, 40, 40, 96)        │             864 │ block_1_pad[0][0]          │
│ (DepthwiseConv2D)             │                           │                 │                            │
├───────────────────────────────┼───────────────────────────┼─────────────────┼────────────────────────────┤
│ block_1_depthwise_BN          │ (None, 40, 40, 96)        │             384 │ block_1_depthwise[0][0]    │
│ (BatchNormalization)          │                           │                 │                            │
├───────────────────────────────┼───────────────────────────┼─────────────────┼────────────────────────────┤
│ block_1_depthwise_relu (ReLU) │ (None, 40, 40, 96)        │               0 │ block_1_depthwise_BN[0][0] │
├───────────────────────────────┼───────────────────────────┼─────────────────┼────────────────────────────┤
│ block_1_project (Conv2D)      │ (None, 40, 40, 24)        │           2,304 │ block_1_depthwise_relu[0]… │
├───────────────────────────────┼───────────────────────────┼─────────────────┼────────────────────────────┤
│ block_1_project_BN            │ (None, 40, 40, 24)        │              96 │ block_1_project[0][0]      │
│ (BatchNormalization)          │                           │                 │                            │
├───────────────────────────────┼───────────────────────────┼─────────────────┼────────────────────────────┤
│ block_2_expand (Conv2D)       │ (None, 40, 40, 144)       │           3,456 │ block_1_project_BN[0][0]   │
├───────────────────────────────┼───────────────────────────┼─────────────────┼────────────────────────────┤
│ block_2_expand_BN             │ (None, 40, 40, 144)       │             576 │ block_2_expand[0][0]       │
│ (BatchNormalization)          │                           │                 │                            │
├───────────────────────────────┼───────────────────────────┼─────────────────┼────────────────────────────┤
│ block_2_expand_relu (ReLU)    │ (None, 40, 40, 144)       │               0 │ block_2_expand_BN[0][0]    │
├───────────────────────────────┼───────────────────────────┼─────────────────┼────────────────────────────┤
│ block_2_depthwise             │ (None, 40, 40, 144)       │           1,296 │ block_2_expand_relu[0][0]  │
│ (DepthwiseConv2D)             │                           │                 │                            │
├───────────────────────────────┼───────────────────────────┼─────────────────┼────────────────────────────┤
│ block_2_depthwise_BN          │ (None, 40, 40, 144)       │             576 │ block_2_depthwise[0][0]    │
│ (BatchNormalization)          │                           │                 │                            │
├───────────────────────────────┼───────────────────────────┼─────────────────┼────────────────────────────┤
│ block_2_depthwise_relu (ReLU) │ (None, 40, 40, 144)       │               0 │ block_2_depthwise_BN[0][0] │
├───────────────────────────────┼───────────────────────────┼─────────────────┼────────────────────────────┤
│ block_2_project (Conv2D)      │ (None, 40, 40, 24)        │           3,456 │ block_2_depthwise_relu[0]… │
├───────────────────────────────┼───────────────────────────┼─────────────────┼────────────────────────────┤
│ block_2_project_BN            │ (None, 40, 40, 24)        │              96 │ block_2_project[0][0]      │
│ (BatchNormalization)          │                           │                 │                            │
├───────────────────────────────┼───────────────────────────┼─────────────────┼────────────────────────────┤
│ block_2_add (Add)             │ (None, 40, 40, 24)        │               0 │ block_1_project_BN[0][0],  │
│                               │                           │                 │ block_2_project_BN[0][0]   │
├───────────────────────────────┼───────────────────────────┼─────────────────┼────────────────────────────┤
│ block_3_expand (Conv2D)       │ (None, 40, 40, 144)       │           3,456 │ block_2_add[0][0]          │
├───────────────────────────────┼───────────────────────────┼─────────────────┼────────────────────────────┤
│ block_3_expand_BN             │ (None, 40, 40, 144)       │             576 │ block_3_expand[0][0]       │
│ (BatchNormalization)          │                           │                 │                            │
├───────────────────────────────┼───────────────────────────┼─────────────────┼────────────────────────────┤
│ block_3_expand_relu (ReLU)    │ (None, 40, 40, 144)       │               0 │ block_3_expand_BN[0][0]    │
├───────────────────────────────┼───────────────────────────┼─────────────────┼────────────────────────────┤
│ block_3_pad (ZeroPadding2D)   │ (None, 41, 41, 144)       │               0 │ block_3_expand_relu[0][0]  │
├───────────────────────────────┼───────────────────────────┼─────────────────┼────────────────────────────┤
│ block_3_depthwise             │ (None, 20, 20, 144)       │           1,296 │ block_3_pad[0][0]          │
│ (DepthwiseConv2D)             │                           │                 │                            │
├───────────────────────────────┼───────────────────────────┼─────────────────┼────────────────────────────┤
│ block_3_depthwise_BN          │ (None, 20, 20, 144)       │             576 │ block_3_depthwise[0][0]    │
│ (BatchNormalization)          │                           │                 │                            │
├───────────────────────────────┼───────────────────────────┼─────────────────┼────────────────────────────┤
│ block_3_depthwise_relu (ReLU) │ (None, 20, 20, 144)       │               0 │ block_3_depthwise_BN[0][0] │
├───────────────────────────────┼───────────────────────────┼─────────────────┼────────────────────────────┤
│ block_3_project (Conv2D)      │ (None, 20, 20, 32)        │           4,608 │ block_3_depthwise_relu[0]… │
├───────────────────────────────┼───────────────────────────┼─────────────────┼────────────────────────────┤
│ block_3_project_BN            │ (None, 20, 20, 32)        │             128 │ block_3_project[0][0]      │
│ (BatchNormalization)          │                           │                 │                            │
├───────────────────────────────┼───────────────────────────┼─────────────────┼────────────────────────────┤
│ block_4_expand (Conv2D)       │ (None, 20, 20, 192)       │           6,144 │ block_3_project_BN[0][0]   │
├───────────────────────────────┼───────────────────────────┼─────────────────┼────────────────────────────┤
│ block_4_expand_BN             │ (None, 20, 20, 192)       │             768 │ block_4_expand[0][0]       │
│ (BatchNormalization)          │                           │                 │                            │
├───────────────────────────────┼───────────────────────────┼─────────────────┼────────────────────────────┤
│ block_4_expand_relu (ReLU)    │ (None, 20, 20, 192)       │               0 │ block_4_expand_BN[0][0]    │
├───────────────────────────────┼───────────────────────────┼─────────────────┼────────────────────────────┤
│ block_4_depthwise             │ (None, 20, 20, 192)       │           1,728 │ block_4_expand_relu[0][0]  │
│ (DepthwiseConv2D)             │                           │                 │                            │
├───────────────────────────────┼───────────────────────────┼─────────────────┼────────────────────────────┤
│ block_4_depthwise_BN          │ (None, 20, 20, 192)       │             768 │ block_4_depthwise[0][0]    │
│ (BatchNormalization)          │                           │                 │                            │
├───────────────────────────────┼───────────────────────────┼─────────────────┼────────────────────────────┤
│ block_4_depthwise_relu (ReLU) │ (None, 20, 20, 192)       │               0 │ block_4_depthwise_BN[0][0] │
├───────────────────────────────┼───────────────────────────┼─────────────────┼────────────────────────────┤
│ block_4_project (Conv2D)      │ (None, 20, 20, 32)        │           6,144 │ block_4_depthwise_relu[0]… │
├───────────────────────────────┼───────────────────────────┼─────────────────┼────────────────────────────┤
│ block_4_project_BN            │ (None, 20, 20, 32)        │             128 │ block_4_project[0][0]      │
│ (BatchNormalization)          │                           │                 │                            │
├───────────────────────────────┼───────────────────────────┼─────────────────┼────────────────────────────┤
│ block_4_add (Add)             │ (None, 20, 20, 32)        │               0 │ block_3_project_BN[0][0],  │
│                               │                           │                 │ block_4_project_BN[0][0]   │
├───────────────────────────────┼───────────────────────────┼─────────────────┼────────────────────────────┤
│ block_5_expand (Conv2D)       │ (None, 20, 20, 192)       │           6,144 │ block_4_add[0][0]          │
├───────────────────────────────┼───────────────────────────┼─────────────────┼────────────────────────────┤
│ block_5_expand_BN             │ (None, 20, 20, 192)       │             768 │ block_5_expand[0][0]       │
│ (BatchNormalization)          │                           │                 │                            │
├───────────────────────────────┼───────────────────────────┼─────────────────┼────────────────────────────┤
│ block_5_expand_relu (ReLU)    │ (None, 20, 20, 192)       │               0 │ block_5_expand_BN[0][0]    │
├───────────────────────────────┼───────────────────────────┼─────────────────┼────────────────────────────┤
│ block_5_depthwise             │ (None, 20, 20, 192)       │           1,728 │ block_5_expand_relu[0][0]  │
│ (DepthwiseConv2D)             │                           │                 │                            │
├───────────────────────────────┼───────────────────────────┼─────────────────┼────────────────────────────┤
│ block_5_depthwise_BN          │ (None, 20, 20, 192)       │             768 │ block_5_depthwise[0][0]    │
│ (BatchNormalization)          │                           │                 │                            │
├───────────────────────────────┼───────────────────────────┼─────────────────┼────────────────────────────┤
│ block_5_depthwise_relu (ReLU) │ (None, 20, 20, 192)       │               0 │ block_5_depthwise_BN[0][0] │
├───────────────────────────────┼───────────────────────────┼─────────────────┼────────────────────────────┤
│ block_5_project (Conv2D)      │ (None, 20, 20, 32)        │           6,144 │ block_5_depthwise_relu[0]… │
├───────────────────────────────┼───────────────────────────┼─────────────────┼────────────────────────────┤
│ block_5_project_BN            │ (None, 20, 20, 32)        │             128 │ block_5_project[0][0]      │
│ (BatchNormalization)          │                           │                 │                            │
├───────────────────────────────┼───────────────────────────┼─────────────────┼────────────────────────────┤
│ block_5_add (Add)             │ (None, 20, 20, 32)        │               0 │ block_4_add[0][0],         │
│                               │                           │                 │ block_5_project_BN[0][0]   │
├───────────────────────────────┼───────────────────────────┼─────────────────┼────────────────────────────┤
│ block_6_expand (Conv2D)       │ (None, 20, 20, 192)       │           6,144 │ block_5_add[0][0]          │
├───────────────────────────────┼───────────────────────────┼─────────────────┼────────────────────────────┤
│ block_6_expand_BN             │ (None, 20, 20, 192)       │             768 │ block_6_expand[0][0]       │
│ (BatchNormalization)          │                           │                 │                            │
├───────────────────────────────┼───────────────────────────┼─────────────────┼────────────────────────────┤
│ block_6_expand_relu (ReLU)    │ (None, 20, 20, 192)       │               0 │ block_6_expand_BN[0][0]    │
├───────────────────────────────┼───────────────────────────┼─────────────────┼────────────────────────────┤
│ block_6_pad (ZeroPadding2D)   │ (None, 21, 21, 192)       │               0 │ block_6_expand_relu[0][0]  │
├───────────────────────────────┼───────────────────────────┼─────────────────┼────────────────────────────┤
│ block_6_depthwise             │ (None, 10, 10, 192)       │           1,728 │ block_6_pad[0][0]          │
│ (DepthwiseConv2D)             │                           │                 │                            │
├───────────────────────────────┼───────────────────────────┼─────────────────┼────────────────────────────┤
│ block_6_depthwise_BN          │ (None, 10, 10, 192)       │             768 │ block_6_depthwise[0][0]    │
│ (BatchNormalization)          │                           │                 │                            │
├───────────────────────────────┼───────────────────────────┼─────────────────┼────────────────────────────┤
│ block_6_depthwise_relu (ReLU) │ (None, 10, 10, 192)       │               0 │ block_6_depthwise_BN[0][0] │
├───────────────────────────────┼───────────────────────────┼─────────────────┼────────────────────────────┤
│ block_6_project (Conv2D)      │ (None, 10, 10, 64)        │          12,288 │ block_6_depthwise_relu[0]… │
├───────────────────────────────┼───────────────────────────┼─────────────────┼────────────────────────────┤
│ block_6_project_BN            │ (None, 10, 10, 64)        │             256 │ block_6_project[0][0]      │
│ (BatchNormalization)          │                           │                 │                            │
├───────────────────────────────┼───────────────────────────┼─────────────────┼────────────────────────────┤
│ block_7_expand (Conv2D)       │ (None, 10, 10, 384)       │          24,576 │ block_6_project_BN[0][0]   │
├───────────────────────────────┼───────────────────────────┼─────────────────┼────────────────────────────┤
│ block_7_expand_BN             │ (None, 10, 10, 384)       │           1,536 │ block_7_expand[0][0]       │
│ (BatchNormalization)          │                           │                 │                            │
├───────────────────────────────┼───────────────────────────┼─────────────────┼────────────────────────────┤
│ block_7_expand_relu (ReLU)    │ (None, 10, 10, 384)       │               0 │ block_7_expand_BN[0][0]    │
├───────────────────────────────┼───────────────────────────┼─────────────────┼────────────────────────────┤
│ block_7_depthwise             │ (None, 10, 10, 384)       │           3,456 │ block_7_expand_relu[0][0]  │
│ (DepthwiseConv2D)             │                           │                 │                            │
├───────────────────────────────┼───────────────────────────┼─────────────────┼────────────────────────────┤
│ block_7_depthwise_BN          │ (None, 10, 10, 384)       │           1,536 │ block_7_depthwise[0][0]    │
│ (BatchNormalization)          │                           │                 │                            │
├───────────────────────────────┼───────────────────────────┼─────────────────┼────────────────────────────┤
│ block_7_depthwise_relu (ReLU) │ (None, 10, 10, 384)       │               0 │ block_7_depthwise_BN[0][0] │
├───────────────────────────────┼───────────────────────────┼─────────────────┼────────────────────────────┤
│ block_7_project (Conv2D)      │ (None, 10, 10, 64)        │          24,576 │ block_7_depthwise_relu[0]… │
├───────────────────────────────┼───────────────────────────┼─────────────────┼────────────────────────────┤
│ block_7_project_BN            │ (None, 10, 10, 64)        │             256 │ block_7_project[0][0]      │
│ (BatchNormalization)          │                           │                 │                            │
├───────────────────────────────┼───────────────────────────┼─────────────────┼────────────────────────────┤
│ block_7_add (Add)             │ (None, 10, 10, 64)        │               0 │ block_6_project_BN[0][0],  │
│                               │                           │                 │ block_7_project_BN[0][0]   │
├───────────────────────────────┼───────────────────────────┼─────────────────┼────────────────────────────┤
│ block_8_expand (Conv2D)       │ (None, 10, 10, 384)       │          24,576 │ block_7_add[0][0]          │
├───────────────────────────────┼───────────────────────────┼─────────────────┼────────────────────────────┤
│ block_8_expand_BN             │ (None, 10, 10, 384)       │           1,536 │ block_8_expand[0][0]       │
│ (BatchNormalization)          │                           │                 │                            │
├───────────────────────────────┼───────────────────────────┼─────────────────┼────────────────────────────┤
│ block_8_expand_relu (ReLU)    │ (None, 10, 10, 384)       │               0 │ block_8_expand_BN[0][0]    │
├───────────────────────────────┼───────────────────────────┼─────────────────┼────────────────────────────┤
│ block_8_depthwise             │ (None, 10, 10, 384)       │           3,456 │ block_8_expand_relu[0][0]  │
│ (DepthwiseConv2D)             │                           │                 │                            │
├───────────────────────────────┼───────────────────────────┼─────────────────┼────────────────────────────┤
│ block_8_depthwise_BN          │ (None, 10, 10, 384)       │           1,536 │ block_8_depthwise[0][0]    │
│ (BatchNormalization)          │                           │                 │                            │
├───────────────────────────────┼───────────────────────────┼─────────────────┼────────────────────────────┤
│ block_8_depthwise_relu (ReLU) │ (None, 10, 10, 384)       │               0 │ block_8_depthwise_BN[0][0] │
├───────────────────────────────┼───────────────────────────┼─────────────────┼────────────────────────────┤
│ block_8_project (Conv2D)      │ (None, 10, 10, 64)        │          24,576 │ block_8_depthwise_relu[0]… │
├───────────────────────────────┼───────────────────────────┼─────────────────┼────────────────────────────┤
│ block_8_project_BN            │ (None, 10, 10, 64)        │             256 │ block_8_project[0][0]      │
│ (BatchNormalization)          │                           │                 │                            │
├───────────────────────────────┼───────────────────────────┼─────────────────┼────────────────────────────┤
│ block_8_add (Add)             │ (None, 10, 10, 64)        │               0 │ block_7_add[0][0],         │
│                               │                           │                 │ block_8_project_BN[0][0]   │
├───────────────────────────────┼───────────────────────────┼─────────────────┼────────────────────────────┤
│ block_9_expand (Conv2D)       │ (None, 10, 10, 384)       │          24,576 │ block_8_add[0][0]          │
├───────────────────────────────┼───────────────────────────┼─────────────────┼────────────────────────────┤
│ block_9_expand_BN             │ (None, 10, 10, 384)       │           1,536 │ block_9_expand[0][0]       │
│ (BatchNormalization)          │                           │                 │                            │
├───────────────────────────────┼───────────────────────────┼─────────────────┼────────────────────────────┤
│ block_9_expand_relu (ReLU)    │ (None, 10, 10, 384)       │               0 │ block_9_expand_BN[0][0]    │
├───────────────────────────────┼───────────────────────────┼─────────────────┼────────────────────────────┤
│ block_9_depthwise             │ (None, 10, 10, 384)       │           3,456 │ block_9_expand_relu[0][0]  │
│ (DepthwiseConv2D)             │                           │                 │                            │
├───────────────────────────────┼───────────────────────────┼─────────────────┼────────────────────────────┤
│ block_9_depthwise_BN          │ (None, 10, 10, 384)       │           1,536 │ block_9_depthwise[0][0]    │
│ (BatchNormalization)          │                           │                 │                            │
├───────────────────────────────┼───────────────────────────┼─────────────────┼────────────────────────────┤
│ block_9_depthwise_relu (ReLU) │ (None, 10, 10, 384)       │               0 │ block_9_depthwise_BN[0][0] │
├───────────────────────────────┼───────────────────────────┼─────────────────┼────────────────────────────┤
│ block_9_project (Conv2D)      │ (None, 10, 10, 64)        │          24,576 │ block_9_depthwise_relu[0]… │
├───────────────────────────────┼───────────────────────────┼─────────────────┼────────────────────────────┤
│ block_9_project_BN            │ (None, 10, 10, 64)        │             256 │ block_9_project[0][0]      │
│ (BatchNormalization)          │                           │                 │                            │
├───────────────────────────────┼───────────────────────────┼─────────────────┼────────────────────────────┤
│ block_9_add (Add)             │ (None, 10, 10, 64)        │               0 │ block_8_add[0][0],         │
│                               │                           │                 │ block_9_project_BN[0][0]   │
├───────────────────────────────┼───────────────────────────┼─────────────────┼────────────────────────────┤
│ block_10_expand (Conv2D)      │ (None, 10, 10, 384)       │          24,576 │ block_9_add[0][0]          │
├───────────────────────────────┼───────────────────────────┼─────────────────┼────────────────────────────┤
│ block_10_expand_BN            │ (None, 10, 10, 384)       │           1,536 │ block_10_expand[0][0]      │
│ (BatchNormalization)          │                           │                 │                            │
├───────────────────────────────┼───────────────────────────┼─────────────────┼────────────────────────────┤
│ block_10_expand_relu (ReLU)   │ (None, 10, 10, 384)       │               0 │ block_10_expand_BN[0][0]   │
├───────────────────────────────┼───────────────────────────┼─────────────────┼────────────────────────────┤
│ block_10_depthwise            │ (None, 10, 10, 384)       │           3,456 │ block_10_expand_relu[0][0] │
│ (DepthwiseConv2D)             │                           │                 │                            │
├───────────────────────────────┼───────────────────────────┼─────────────────┼────────────────────────────┤
│ block_10_depthwise_BN         │ (None, 10, 10, 384)       │           1,536 │ block_10_depthwise[0][0]   │
│ (BatchNormalization)          │                           │                 │                            │
├───────────────────────────────┼───────────────────────────┼─────────────────┼────────────────────────────┤
│ block_10_depthwise_relu       │ (None, 10, 10, 384)       │               0 │ block_10_depthwise_BN[0][… │
│ (ReLU)                        │                           │                 │                            │
├───────────────────────────────┼───────────────────────────┼─────────────────┼────────────────────────────┤
│ block_10_project (Conv2D)     │ (None, 10, 10, 96)        │          36,864 │ block_10_depthwise_relu[0… │
├───────────────────────────────┼───────────────────────────┼─────────────────┼────────────────────────────┤
│ block_10_project_BN           │ (None, 10, 10, 96)        │             384 │ block_10_project[0][0]     │
│ (BatchNormalization)          │                           │                 │                            │
├───────────────────────────────┼───────────────────────────┼─────────────────┼────────────────────────────┤
│ block_11_expand (Conv2D)      │ (None, 10, 10, 576)       │          55,296 │ block_10_project_BN[0][0]  │
├───────────────────────────────┼───────────────────────────┼─────────────────┼────────────────────────────┤
│ block_11_expand_BN            │ (None, 10, 10, 576)       │           2,304 │ block_11_expand[0][0]      │
│ (BatchNormalization)          │                           │                 │                            │
├───────────────────────────────┼───────────────────────────┼─────────────────┼────────────────────────────┤
│ block_11_expand_relu (ReLU)   │ (None, 10, 10, 576)       │               0 │ block_11_expand_BN[0][0]   │
├───────────────────────────────┼───────────────────────────┼─────────────────┼────────────────────────────┤
│ block_11_depthwise            │ (None, 10, 10, 576)       │           5,184 │ block_11_expand_relu[0][0] │
│ (DepthwiseConv2D)             │                           │                 │                            │
├───────────────────────────────┼───────────────────────────┼─────────────────┼────────────────────────────┤
│ block_11_depthwise_BN         │ (None, 10, 10, 576)       │           2,304 │ block_11_depthwise[0][0]   │
│ (BatchNormalization)          │                           │                 │                            │
├───────────────────────────────┼───────────────────────────┼─────────────────┼────────────────────────────┤
│ block_11_depthwise_relu       │ (None, 10, 10, 576)       │               0 │ block_11_depthwise_BN[0][… │
│ (ReLU)                        │                           │                 │                            │
├───────────────────────────────┼───────────────────────────┼─────────────────┼────────────────────────────┤
│ block_11_project (Conv2D)     │ (None, 10, 10, 96)        │          55,296 │ block_11_depthwise_relu[0… │
├───────────────────────────────┼───────────────────────────┼─────────────────┼────────────────────────────┤
│ block_11_project_BN           │ (None, 10, 10, 96)        │             384 │ block_11_project[0][0]     │
│ (BatchNormalization)          │                           │                 │                            │
├───────────────────────────────┼───────────────────────────┼─────────────────┼────────────────────────────┤
│ block_11_add (Add)            │ (None, 10, 10, 96)        │               0 │ block_10_project_BN[0][0], │
│                               │                           │                 │ block_11_project_BN[0][0]  │
├───────────────────────────────┼───────────────────────────┼─────────────────┼────────────────────────────┤
│ block_12_expand (Conv2D)      │ (None, 10, 10, 576)       │          55,296 │ block_11_add[0][0]         │
├───────────────────────────────┼───────────────────────────┼─────────────────┼────────────────────────────┤
│ block_12_expand_BN            │ (None, 10, 10, 576)       │           2,304 │ block_12_expand[0][0]      │
│ (BatchNormalization)          │                           │                 │                            │
├───────────────────────────────┼───────────────────────────┼─────────────────┼────────────────────────────┤
│ block_12_expand_relu (ReLU)   │ (None, 10, 10, 576)       │               0 │ block_12_expand_BN[0][0]   │
├───────────────────────────────┼───────────────────────────┼─────────────────┼────────────────────────────┤
│ block_12_depthwise            │ (None, 10, 10, 576)       │           5,184 │ block_12_expand_relu[0][0] │
│ (DepthwiseConv2D)             │                           │                 │                            │
├───────────────────────────────┼───────────────────────────┼─────────────────┼────────────────────────────┤
│ block_12_depthwise_BN         │ (None, 10, 10, 576)       │           2,304 │ block_12_depthwise[0][0]   │
│ (BatchNormalization)          │                           │                 │                            │
├───────────────────────────────┼───────────────────────────┼─────────────────┼────────────────────────────┤
│ block_12_depthwise_relu       │ (None, 10, 10, 576)       │               0 │ block_12_depthwise_BN[0][… │
│ (ReLU)                        │                           │                 │                            │
├───────────────────────────────┼───────────────────────────┼─────────────────┼────────────────────────────┤
│ block_12_project (Conv2D)     │ (None, 10, 10, 96)        │          55,296 │ block_12_depthwise_relu[0… │
├───────────────────────────────┼───────────────────────────┼─────────────────┼────────────────────────────┤
│ block_12_project_BN           │ (None, 10, 10, 96)        │             384 │ block_12_project[0][0]     │
│ (BatchNormalization)          │                           │                 │                            │
├───────────────────────────────┼───────────────────────────┼─────────────────┼────────────────────────────┤
│ block_12_add (Add)            │ (None, 10, 10, 96)        │               0 │ block_11_add[0][0],        │
│                               │                           │                 │ block_12_project_BN[0][0]  │
├───────────────────────────────┼───────────────────────────┼─────────────────┼────────────────────────────┤
│ block_13_expand (Conv2D)      │ (None, 10, 10, 576)       │          55,296 │ block_12_add[0][0]         │
├───────────────────────────────┼───────────────────────────┼─────────────────┼────────────────────────────┤
│ block_13_expand_BN            │ (None, 10, 10, 576)       │           2,304 │ block_13_expand[0][0]      │
│ (BatchNormalization)          │                           │                 │                            │
├───────────────────────────────┼───────────────────────────┼─────────────────┼────────────────────────────┤
│ block_13_expand_relu (ReLU)   │ (None, 10, 10, 576)       │               0 │ block_13_expand_BN[0][0]   │
├───────────────────────────────┼───────────────────────────┼─────────────────┼────────────────────────────┤
│ block_13_pad (ZeroPadding2D)  │ (None, 11, 11, 576)       │               0 │ block_13_expand_relu[0][0] │
├───────────────────────────────┼───────────────────────────┼─────────────────┼────────────────────────────┤
│ block_13_depthwise            │ (None, 5, 5, 576)         │           5,184 │ block_13_pad[0][0]         │
│ (DepthwiseConv2D)             │                           │                 │                            │
├───────────────────────────────┼───────────────────────────┼─────────────────┼────────────────────────────┤
│ block_13_depthwise_BN         │ (None, 5, 5, 576)         │           2,304 │ block_13_depthwise[0][0]   │
│ (BatchNormalization)          │                           │                 │                            │
├───────────────────────────────┼───────────────────────────┼─────────────────┼────────────────────────────┤
│ block_13_depthwise_relu       │ (None, 5, 5, 576)         │               0 │ block_13_depthwise_BN[0][… │
│ (ReLU)                        │                           │                 │                            │
├───────────────────────────────┼───────────────────────────┼─────────────────┼────────────────────────────┤
│ block_13_project (Conv2D)     │ (None, 5, 5, 160)         │          92,160 │ block_13_depthwise_relu[0… │
├───────────────────────────────┼───────────────────────────┼─────────────────┼────────────────────────────┤
│ block_13_project_BN           │ (None, 5, 5, 160)         │             640 │ block_13_project[0][0]     │
│ (BatchNormalization)          │                           │                 │                            │
├───────────────────────────────┼───────────────────────────┼─────────────────┼────────────────────────────┤
│ block_14_expand (Conv2D)      │ (None, 5, 5, 960)         │         153,600 │ block_13_project_BN[0][0]  │
├───────────────────────────────┼───────────────────────────┼─────────────────┼────────────────────────────┤
│ block_14_expand_BN            │ (None, 5, 5, 960)         │           3,840 │ block_14_expand[0][0]      │
│ (BatchNormalization)          │                           │                 │                            │
├───────────────────────────────┼───────────────────────────┼─────────────────┼────────────────────────────┤
│ block_14_expand_relu (ReLU)   │ (None, 5, 5, 960)         │               0 │ block_14_expand_BN[0][0]   │
├───────────────────────────────┼───────────────────────────┼─────────────────┼────────────────────────────┤
│ block_14_depthwise            │ (None, 5, 5, 960)         │           8,640 │ block_14_expand_relu[0][0] │
│ (DepthwiseConv2D)             │                           │                 │                            │
├───────────────────────────────┼───────────────────────────┼─────────────────┼────────────────────────────┤
│ block_14_depthwise_BN         │ (None, 5, 5, 960)         │           3,840 │ block_14_depthwise[0][0]   │
│ (BatchNormalization)          │                           │                 │                            │
├───────────────────────────────┼───────────────────────────┼─────────────────┼────────────────────────────┤
│ block_14_depthwise_relu       │ (None, 5, 5, 960)         │               0 │ block_14_depthwise_BN[0][… │
│ (ReLU)                        │                           │                 │                            │
├───────────────────────────────┼───────────────────────────┼─────────────────┼────────────────────────────┤
│ block_14_project (Conv2D)     │ (None, 5, 5, 160)         │         153,600 │ block_14_depthwise_relu[0… │
├───────────────────────────────┼───────────────────────────┼─────────────────┼────────────────────────────┤
│ block_14_project_BN           │ (None, 5, 5, 160)         │             640 │ block_14_project[0][0]     │
│ (BatchNormalization)          │                           │                 │                            │
├───────────────────────────────┼───────────────────────────┼─────────────────┼────────────────────────────┤
│ block_14_add (Add)            │ (None, 5, 5, 160)         │               0 │ block_13_project_BN[0][0], │
│                               │                           │                 │ block_14_project_BN[0][0]  │
├───────────────────────────────┼───────────────────────────┼─────────────────┼────────────────────────────┤
│ block_15_expand (Conv2D)      │ (None, 5, 5, 960)         │         153,600 │ block_14_add[0][0]         │
├───────────────────────────────┼───────────────────────────┼─────────────────┼────────────────────────────┤
│ block_15_expand_BN            │ (None, 5, 5, 960)         │           3,840 │ block_15_expand[0][0]      │
│ (BatchNormalization)          │                           │                 │                            │
├───────────────────────────────┼───────────────────────────┼─────────────────┼────────────────────────────┤
│ block_15_expand_relu (ReLU)   │ (None, 5, 5, 960)         │               0 │ block_15_expand_BN[0][0]   │
├───────────────────────────────┼───────────────────────────┼─────────────────┼────────────────────────────┤
│ block_15_depthwise            │ (None, 5, 5, 960)         │           8,640 │ block_15_expand_relu[0][0] │
│ (DepthwiseConv2D)             │                           │                 │                            │
├───────────────────────────────┼───────────────────────────┼─────────────────┼────────────────────────────┤
│ block_15_depthwise_BN         │ (None, 5, 5, 960)         │           3,840 │ block_15_depthwise[0][0]   │
│ (BatchNormalization)          │                           │                 │                            │
├───────────────────────────────┼───────────────────────────┼─────────────────┼────────────────────────────┤
│ block_15_depthwise_relu       │ (None, 5, 5, 960)         │               0 │ block_15_depthwise_BN[0][… │
│ (ReLU)                        │                           │                 │                            │
├───────────────────────────────┼───────────────────────────┼─────────────────┼────────────────────────────┤
│ block_15_project (Conv2D)     │ (None, 5, 5, 160)         │         153,600 │ block_15_depthwise_relu[0… │
├───────────────────────────────┼───────────────────────────┼─────────────────┼────────────────────────────┤
│ block_15_project_BN           │ (None, 5, 5, 160)         │             640 │ block_15_project[0][0]     │
│ (BatchNormalization)          │                           │                 │                            │
├───────────────────────────────┼───────────────────────────┼─────────────────┼────────────────────────────┤
│ block_15_add (Add)            │ (None, 5, 5, 160)         │               0 │ block_14_add[0][0],        │
│                               │                           │                 │ block_15_project_BN[0][0]  │
├───────────────────────────────┼───────────────────────────┼─────────────────┼────────────────────────────┤
│ block_16_expand (Conv2D)      │ (None, 5, 5, 960)         │         153,600 │ block_15_add[0][0]         │
├───────────────────────────────┼───────────────────────────┼─────────────────┼────────────────────────────┤
│ block_16_expand_BN            │ (None, 5, 5, 960)         │           3,840 │ block_16_expand[0][0]      │
│ (BatchNormalization)          │                           │                 │                            │
├───────────────────────────────┼───────────────────────────┼─────────────────┼────────────────────────────┤
│ block_16_expand_relu (ReLU)   │ (None, 5, 5, 960)         │               0 │ block_16_expand_BN[0][0]   │
├───────────────────────────────┼───────────────────────────┼─────────────────┼────────────────────────────┤
│ block_16_depthwise            │ (None, 5, 5, 960)         │           8,640 │ block_16_expand_relu[0][0] │
│ (DepthwiseConv2D)             │                           │                 │                            │
├───────────────────────────────┼───────────────────────────┼─────────────────┼────────────────────────────┤
│ block_16_depthwise_BN         │ (None, 5, 5, 960)         │           3,840 │ block_16_depthwise[0][0]   │
│ (BatchNormalization)          │                           │                 │                            │
├───────────────────────────────┼───────────────────────────┼─────────────────┼────────────────────────────┤
│ block_16_depthwise_relu       │ (None, 5, 5, 960)         │               0 │ block_16_depthwise_BN[0][… │
│ (ReLU)                        │                           │                 │                            │
├───────────────────────────────┼───────────────────────────┼─────────────────┼────────────────────────────┤
│ block_16_project (Conv2D)     │ (None, 5, 5, 320)         │         307,200 │ block_16_depthwise_relu[0… │
├───────────────────────────────┼───────────────────────────┼─────────────────┼────────────────────────────┤
│ block_16_project_BN           │ (None, 5, 5, 320)         │           1,280 │ block_16_project[0][0]     │
│ (BatchNormalization)          │                           │                 │                            │
├───────────────────────────────┼───────────────────────────┼─────────────────┼────────────────────────────┤
│ Conv_1 (Conv2D)               │ (None, 5, 5, 1280)        │         409,600 │ block_16_project_BN[0][0]  │
├───────────────────────────────┼───────────────────────────┼─────────────────┼────────────────────────────┤
│ Conv_1_bn                     │ (None, 5, 5, 1280)        │           5,120 │ Conv_1[0][0]               │
│ (BatchNormalization)          │                           │                 │                            │
├───────────────────────────────┼───────────────────────────┼─────────────────┼────────────────────────────┤
│ out_relu (ReLU)               │ (None, 5, 5, 1280)        │               0 │ Conv_1_bn[0][0]            │
└───────────────────────────────┴───────────────────────────┴─────────────────┴────────────────────────────┘
 Total params: 2,257,984 (8.61 MB)
 Trainable params: 0 (0.00 B)
 Non-trainable params: 2,257,984 (8.61 MB)
(32, 1280)
(32, 1)
Model: "functional_2"
┏━━━━━━━━━━━━━━━━━━━━━━━━━━━━━━━━━━━━━━┳━━━━━━━━━━━━━━━━━━━━━━━━━━━━━┳━━━━━━━━━━━━━━━━━┓
┃ Layer (type)                         ┃ Output Shape                ┃         Param # ┃
┡━━━━━━━━━━━━━━━━━━━━━━━━━━━━━━━━━━━━━━╇━━━━━━━━━━━━━━━━━━━━━━━━━━━━━╇━━━━━━━━━━━━━━━━━┩
│ input_layer_2 (InputLayer)           │ (None, 160, 160, 3)         │               0 │
├──────────────────────────────────────┼─────────────────────────────┼─────────────────┤
│ sequential (Sequential)              │ (None, 160, 160, 3)         │               0 │
├──────────────────────────────────────┼─────────────────────────────┼─────────────────┤
│ true_divide (TrueDivide)             │ (None, 160, 160, 3)         │               0 │
├──────────────────────────────────────┼─────────────────────────────┼─────────────────┤
│ subtract (Subtract)                  │ (None, 160, 160, 3)         │               0 │
├──────────────────────────────────────┼─────────────────────────────┼─────────────────┤
│ mobilenetv2_1.00_160 (Functional)    │ (None, 5, 5, 1280)          │       2,257,984 │
├──────────────────────────────────────┼─────────────────────────────┼─────────────────┤
│ global_average_pooling2d             │ (None, 1280)                │               0 │
│ (GlobalAveragePooling2D)             │                             │                 │
├──────────────────────────────────────┼─────────────────────────────┼─────────────────┤
│ dropout (Dropout)                    │ (None, 1280)                │               0 │
├──────────────────────────────────────┼─────────────────────────────┼─────────────────┤
│ dense (Dense)                        │ (None, 1)                   │           1,281 │
└──────────────────────────────────────┴─────────────────────────────┴─────────────────┘
 Total params: 2,259,265 (8.62 MB)
 Trainable params: 1,281 (5.00 KB)
 Non-trainable params: 2,257,984 (8.61 MB)
51/51 ━━━━━━━━━━━━━━━━━━━━ 12s 198ms/step - accuracy: 0.5041 - loss: 0.7747
initial loss: 0.79
initial accuracy: 0.50
Epoch 1/15
250/250 ━━━━━━━━━━━━━━━━━━━━ 64s 246ms/step - accuracy: 0.6142 - loss: 0.6594 - val_accuracy: 0.9022 - val_loss: 0.2459
…
250/250 ━━━━━━━━━━━━━━━━━━━━ 52s 208ms/step - accuracy: 0.9492 - loss: 0.1192 - val_accuracy: 0.9827 - val_loss: 0.0586
Epoch 15/15
250/250 ━━━━━━━━━━━━━━━━━━━━ 57s 228ms/step - accuracy: 0.9492 - loss: 0.1240 - val_accuracy: 0.9827 - val_loss: 0.0581
Number of layers in the base model:  154
Model: "functional_2"
┏━━━━━━━━━━━━━━━━━━━━━━━━━━━━━━━━━━━━━━┳━━━━━━━━━━━━━━━━━━━━━━━━━━━━━┳━━━━━━━━━━━━━━━━━┓
┃ Layer (type)                         ┃ Output Shape                ┃         Param # ┃
┡━━━━━━━━━━━━━━━━━━━━━━━━━━━━━━━━━━━━━━╇━━━━━━━━━━━━━━━━━━━━━━━━━━━━━╇━━━━━━━━━━━━━━━━━┩
│ input_layer_2 (InputLayer)           │ (None, 160, 160, 3)         │               0 │
├──────────────────────────────────────┼─────────────────────────────┼─────────────────┤
│ sequential (Sequential)              │ (None, 160, 160, 3)         │               0 │
├──────────────────────────────────────┼─────────────────────────────┼─────────────────┤
│ true_divide (TrueDivide)             │ (None, 160, 160, 3)         │               0 │
├──────────────────────────────────────┼─────────────────────────────┼─────────────────┤
│ subtract (Subtract)                  │ (None, 160, 160, 3)         │               0 │
├──────────────────────────────────────┼─────────────────────────────┼─────────────────┤
│ mobilenetv2_1.00_160 (Functional)    │ (None, 5, 5, 1280)          │       2,257,984 │
├──────────────────────────────────────┼─────────────────────────────┼─────────────────┤
│ global_average_pooling2d             │ (None, 1280)                │               0 │
│ (GlobalAveragePooling2D)             │                             │                 │
├──────────────────────────────────────┼─────────────────────────────┼─────────────────┤
│ dropout (Dropout)                    │ (None, 1280)                │               0 │
├──────────────────────────────────────┼─────────────────────────────┼─────────────────┤
│ dense (Dense)                        │ (None, 1)                   │           1,281 │
└──────────────────────────────────────┴─────────────────────────────┴─────────────────┘
 Total params: 2,259,265 (8.62 MB)
 Trainable params: 2,040,065 (7.78 MB)
 Non-trainable params: 219,200 (856.25 KB)
Epoch 15/40
250/250 ━━━━━━━━━━━━━━━━━━━━ 98s 361ms/step - accuracy: 0.8692 - loss: 0.3433 - val_accuracy: 0.9790 - val_loss: 0.0663
Epoch 16/40
250/250 ━━━━━━━━━━━━━━━━━━━━ 89s 356ms/step - accuracy: 0.9320 - loss: 0.1666 - val_accuracy: 0.9802 - val_loss: 0.0476
…
